app/src/main/ml/accident_model.tflite (tflite, 2632 bytes, 5 tensors)

sequential_150/dense_451/BiasAdd/ReadVariableOp f4 [6]
0	0xbc99d07f	-0.018776176
1	0x402d8e74	2.7118196
2	0x00000000	0.0
3	0x40207266	2.5069823
4	0xbfdd16b0	-1.7272549
5	0xc018952b	-2.3841045

sequential_150/dense_450/BiasAdd/ReadVariableOp f4 [10]
0	0xc0076cd3	-2.116017
1	0x3ff94cdd	1.9476582
2	0x00000000	0.0
3	0x4016375d	2.347129
4	0x3fd327e2	1.6496546
5	0xc00ad214	-2.1690722
6	0x00000000	0.0
7	0x00000000	0.0
8	0x3f99356e	1.196943
9	0x00000000	0.0

sequential_150/dense_450/MatMul f4 [10, 5]
0	0x3e73fb90	0.23826432
1	0xbe7ebac1	-0.24875928
2	0xbf0a6086	-0.54053533
3	0x3efb5034	0.49084628
4	0x3e5bdbbd	0.21470542
5	0x3dc31f58	0.09527463
6	0xbe8d17ab	-0.2755712
7	0xbf0c69a0	-0.5484867
8	0x3e20a48d	0.15687771
9	0xbf13f082	-0.5778886
10	0x3d9c3fa8	0.07629329
11	0x3daa92e0	0.083287954
12	0xbdfce668	-0.12348634
13	0xbdf3f8d0	-0.119126916
14	0xbd166e30	-0.036726177
15	0xbd1b2109	-0.0378733
16	0x3e10e98d	0.14151593
17	0x3e0dc30f	0.1384394
18	0xbd21a23d	-0.039461363
19	0xbf3250d4	-0.69654584
20	0x3e8795f1	0.26481584
21	0x3c900a85	0.017583141
22	0x3ee00ec6	0.4376127
23	0xbcad8cfc	-0.02118539
24	0x3eac69b9	0.3367441
25	0x3e77c393	0.241957
26	0xbefd722b	-0.49501166
27	0xbed9a496	-0.42508382
28	0x3ecffbc2	0.40621763
29	0x3d9ab820	0.0755465
30	0xbf076fcc	-0.52904963
31	0x3ebdc5b6	0.37064904
32	0xbf012a24	-0.50454926
33	0xbebb4c8c	-0.36581838
34	0xbdde2c68	-0.108483136
35	0xbe46602a	-0.19372621
36	0x3cc35660	0.023844898
37	0xbf03c56e	-0.5147313
38	0xbf063f2e	-0.52440155
39	0x3ef90eb6	0.48644036
40	0x3d8fe696	0.07026403
41	0xbef992af	-0.48744723
42	0xbe3a7878	-0.18210018
43	0x3eba693b	0.3640841
44	0xbf9bd788	-1.217515
45	0x3e024f94	0.12725669
46	0xbecaa252	-0.39576966
47	0x3e785570	0.24251342
48	0xbf005c53	-0.50140876
49	0x3f0ffd79	0.56246144

sequential_150/dense_451/MatMul f4 [6, 10]
0	0xbedda379	-0.43288782
1	0x3f19ebf3	0.60125655
2	0x3e11b0d0	0.14227605
3	0xbe2c0859	-0.1680006
4	0x3e99c6c9	0.30034474
5	0xbe328862	-0.17434838
6	0xbc199880	-0.009374738
7	0x3f0f8041	0.56055075
8	0xbe7fbdfa	-0.24974814
9	0xbf0536f0	-0.5203695
10	0xbe476638	-0.19472587
11	0x3e8717f9	0.26385477
12	0x3ed3bb8e	0.4135403
13	0x3fbc03b3	1.4688629
14	0x3e1c86ff	0.15285872
15	0xbe40045e	-0.18751666
16	0x3eefab22	0.4681025
17	0x3efbeb9e	0.492032
18	0x3e815b90	0.2526517
19	0x3e3ed930	0.18637538
20	0xbea5d77a	-0.32390958
21	0x3ca684c0	0.020326972
22	0xbd6d8a90	-0.05799347
23	0x3ec33ef8	0.3813398
24	0xbe924d86	-0.2857477
25	0x3e9a1b3c	0.30098903
26	0xbddbf7f0	-0.1074065
27	0x3f052fb7	0.5202593
28	0xbeb4fa26	-0.35347098
29	0xbe2891f6	-0.1646193
30	0x3f0e9519	0.55696255
31	0x3e8ec10e	0.27881664
32	0x3eed1a22	0.46309
33	0x3fa8f8ea	1.3200963
34	0xbebdb8c7	-0.37055036
35	0x3f1378d2	0.5760623
36	0xbd4cc420	-0.049991727
37	0xbea7d68a	-0.32780868
38	0xbc99944d	-0.018747473
39	0x3e140970	0.14456725
40	0x3ea09c78	0.31369376
41	0xbf2e072a	-0.6797968
42	0x3f1a377b	0.60240906
43	0xbec76470	-0.38943815
44	0xbf0de49b	-0.5542695
45	0x3e8794aa	0.2648061
46	0xbe8a77d5	-0.2704455
47	0x3ef4cd82	0.4781304
48	0xbd09d7ce	-0.033653073
49	0xbf074466	-0.5283874
50	0x3eedbd73	0.464336
51	0xbf66dd72	-0.9018165
52	0xbea08b57	-0.31356308
53	0xbf859b76	-1.0438068
54	0xbc805af2	-0.015668366
55	0x3ed86c8b	0.42270312
56	0xbd06c030	-0.032898128
57	0x3ec225de	0.37919515
58	0x3de519f8	0.11186594
59	0x3e297304	0.16547781

sequential_150/dense_452/MatMul f4 [1, 6]
0	0x3e8ff712	0.28118187
1	0xbfa9b22e	-1.3257501
2	0x3e4ceeb0	0.20012927
3	0xbe7469bd	-0.23868461
4	0x3feda40e	1.856569
5	0x3f25c1bc	0.6474874
